model/model.pth (torch, 17216 bytes, 4 tensors)

linear1.weight f4 [256, 11]
-0.24818256 0.47444716 -0.007880872 -0.33663356 -0.15788259 -0.25271037 -0.31210455 0.17158929
0.014281763 -0.0141645875 0.17575261 -0.1257469 -0.5124824 0.37412283 0.2032674 -0.05505201
0.09657405 -0.08950771 -0.029320579 0.30714145 0.2212503 0.2959511 0.12616955 -0.057933
-0.38231373 -0.28707156 0.36390543 0.33864337 0.19239408 -0.120012075 -0.019622728 -0.0043725194
-0.04838874 0.13193423 -0.02728518 0.04710735 -0.022665938 0.113150895 -0.46157548 -0.15069476
-0.14053662 -0.33833086 0.265688 -0.019660922 0.24458723 -0.067312 -0.05371381 0.26002517
0.26967245 -0.35571918 -0.12257865 -0.1157175 -0.22005294 0.48400652 -0.3711767 0.03427259
-0.28096533 -0.070266224 0.06170961 0.14356492 0.5115899 -0.39450154 -0.33326122 0.23042332
-0.27651623 0.3100907 -0.19797286 -0.043362968 -0.21504845 0.33213687 -0.20398852 0.24719074
-0.3038621 0.0772875 -0.30590853 0.09953689 -0.23075098 0.033771038 -0.19302793 -0.016076058
-0.062437475 0.15169784 -0.08636381 0.2741021 -0.2802837 -0.24095862 -0.25537264 -0.06449543
0.37527186 -0.23068915 -0.061310064 0.38559628 -0.06663961 -0.26314384 -0.1219583 -0.18898296
0.18450888 0.4351553 -0.15247084 -0.017254682 -0.3049735 0.30081388 0.15725265 -0.38954717
-0.2954744 0.09989085 -0.09017919 -0.028206792 0.36569756 -0.37341398 -0.14948905 0.09238649
-0.15357529 -0.05240059 -0.1666509 -0.23716854 0.24388592 -0.27974546 -0.10975373 -0.017928474
-0.14862815 -0.28752345 0.008616294 -0.03694666 -0.24879068 -0.06988967 0.24895065 -0.29635915
0.080127515 -0.09733337 -0.41086033 -0.25291058 0.5208683 0.32485902 -0.3392995 0.21388017
0.20188817 -0.13241054 -0.29210782 -0.24318406 -0.26733577 0.1662717 0.25076938 0.1715899
-0.1294477 -0.048320998 0.33213276 0.46113673 -0.3376349 0.07437805 -0.14278743 -0.3077089
0.4858765 0.08305023 0.118002884 0.12811407 0.065924816 -0.34229884 -0.33733815 0.27586597
-0.38489267 0.07577167 -0.46450138 -0.37802294 -0.4327955 0.3809303 0.21151133 -0.1287936
-0.0046060625 -0.3709477 0.16303898 -0.41841775 -0.07591888 -0.36818212 -0.210768 0.30884495
0.12489909 0.04627783 0.61138886 0.11512411 -0.08038208 0.23113872 -0.479847 -0.24505085
0.06278332 -0.107967235 0.3806988 -0.0448763 0.4103685 0.2078771 -0.3574995 0.21504556
0.2128957 -0.21059087 0.3851141 -0.03826177 -0.09046558 -0.12192166 -0.047692552 0.40929216
-0.48360968 -0.12643993 0.23817296 0.14113379 0.17941679 0.22945502 -0.14539365 0.21493147
-0.116943225 0.0038453352 0.14265965 -0.50741994 -0.02919711 0.17142649 0.07869777 0.13565081
-0.19907466 -0.098559186 0.01979574 0.041038662 0.27673644 -0.0013451407 0.028236408 0.3078016
0.42709032 -0.14890409 -0.04796114 -0.1888142 -0.3303616 0.24648033 0.15156013 -0.09222532
0.49821004 -0.36447698 0.15200748 -0.153342 0.27961478 -0.44386643 0.19536667 -0.4322875
-0.4104996 0.070433214 0.3892844 0.5047722 0.07914017 -0.29007113 0.013648184 0.039219104
0.030710718 0.5380498 0.18683483 0.33753955 0.19994101 0.049210027 0.45593056 -0.43815398
00000000: 9223 7ebe bdea f23e c61e 01bc 3c5b acbe
00000010: f9ab 21be 4163 81be 2bcc 9fbe 1ab5 2f3e
00000020: 0efe 693c 9612 68bc 7ef8 333e ccc3 00be
00000030: 0c32 03bf 078d bf3e 5425 503e 377e 61bd
00000040: 9ec8 c53d d14f b7bd b631 f0bc a541 9d3e
00000050: 708f 623e e786 973e 9732 013e 274b 6dbd
00000060: a0be c3be 0bfb 92be d051 ba3e aa62 ad3e
00000070: f402 453e e4c8 f5bd d8bf a0bc 5a47 8fbb
00000080: 4533 46bd c419 073e 2b85 dfbc a3f3 403d
00000090: ebad b9bc a8bb e73d 9f53 ecbe ba4f 1abe
000000a0: d5e8 0fbe b439 adbe 4208 883e f10f a1bc
000000b0: 1375 7a3e e0da 89bd 0303 5cbd 0522 853e
000000c0: 8212 8a3e d320 b6be 840a fbbd 4cfd ecbd
000000d0: 8f55 61be b4cf f73e df0a bebe 6a61 0c3d
000000e0: b0da 8fbe bde7 8fbd 37c3 7c3d af02 133e
000000f0: 8ef7 023f 1bfc c9be 37a1 aabe 17f4 6b3e
00000100: 8993 8dbe 35c4 9e3e 66b9 4abe 5e9d 31bd
00000110: a935 5cbe d80d aa3e 5ee2 50be 921f 7d3e
00000120: d093 9bbe e948 9e3d 0ba0 9cbe ffd9 cb3d
00000130: fc49 6cbe 8053 0a3d 1da9 45be f0b1 83bc
00000140: 70be 7fbd ae56 1b3e 82df b0bd 1c57 8c3e
00000150: 5881 8fbe dbbd 76be 34c0 82be 2e16 84bd
00000160: a223 c03e c739 6cbe 4320 7bbd e06c c53e
00000170: 597a 88bd caba 86be 46c5 f9bd c084 41be
00000180: e5ef 3c3e adcc de3e 5121 1cbe b159 8dbc
00000190: 7d25 9cbe 4704 9a3e d706 213e ba72 c7be
000001a0: 6c48 97be 9393 cc3d deaf b8bd ee11 e7bc
000001b0: b63c bb3e 1e30 bfbe a813 19be 2135 bd3d
000001c0: d742 1dbe 00a2 56bd 89a6 2abe 4fdc 72be
000001d0: 3bbd 793e cc3a 8fbe 90c6 e0bd bcde 92bc
000001e0: fa31 18be 4636 93be 5b2b 0d3c 6255 17bd
000001f0: fcc2 7ebe 5122 8fbd ebec 7e3e 63bc 97be
00000200: e519 a43d b856 c7bd 495c d2be 7f7d 81be
00000210: a057 053f ec53 a63e aab8 adbe 6703 5b3e
00000220: c6bb 4e3e a196 07be 288f 95be 3e05 79be
00000230: 3ce0 88be 2143 2a3e d864 803e 43b5 2f3e
00000240: f08d 04be 3dec 45bd 4e0d aa3e 1d1a ec3e
00000250: 7bde acbe 8553 983d de36 12be 058c 9dbe
00000260: cec4 f83e 3d16 aa3d 7fab f13d 5630 033e
00000270: 9703 873d cb41 afbe 96b7 acbe 4e3e 8d3e
00000280: a710 c5be 2d2e 9b3d 20d3 edbe 398c c1be
00000290: 5f97 ddbe 4c09 c33e 6d96 583e 78e2 03be
000002a0: 74ee 96bb dbec bdbe b1f3 263e da3a d6be
000002b0: 5c7b 9bbd 5e82 bcbe 91d3 57be ed20 9e3e
000002c0: 18cb ff3d d28d 3d3d fb83 1c3f 30c6 eb3d
000002d0: 5c9f a4bd a1af 6c3e 82ae f5be 9cee 7abe
000002e0: 8b94 803d ed1d ddbd f4ea c23e 36d0 37bd
000002f0: d21b d23e bcdd 543e 2d0a b7be e734 5c3e
00000300: 5501 5a3e 22a5 57be ad2d c53e 60b8 1cbd
00000310: 0546 b9bd 10b2 f9bd 4459 43bd be8e d13e
00000320: b09b f7be 7879 01be 9de3 733e 6085 103e
00000330: 09b9 373e 42f6 6a3e 13e2 14be ff16 5c3e
00000340: ee7f efbd 0502 7c3b 5f15 123e 46e6 01bf
00000350: c72e efbc 6d8a 2f3e 4c2c a13d 0ce8 0a3e
00000360: 3ada 4bbe 66d9 c9bd ad2a a23c 2818 283d
00000370: 66b0 8d3e 6f4f b0ba 0a50 e73c 2c98 9d3e
00000380: 95ab da3e 507a 18be e672 44bd 8258 41be
00000390: 2825 a9be 5765 7c3e 9432 1b3e a1e0 bcbd
000003a0: 6315 ff3e ba9c babe d9a7 1b3e af05 1dbe
000003b0: ab29 8f3e 7642 e3be 330e 483e ca54 ddbe
000003c0: 012d d2be 4a3f 903d 4950 c73e c038 013f
000003d0: 3e14 a23d 3484 94be a29c 5f3c 36a4 203d
000003e0: 0b95 fb3c a2bd 093f a151 3f3e fcd1 ac3e
000003f0: 56bd 4c3e 7490 493d bb6f e93e b855 e0be

linear1.bias f4 [256]
-0.16184232 -0.22251438 0.0410574 0.1891778 -0.1419133 -0.15672015 0.24527255 -0.25537333
-0.20363256 -0.08849532 -0.25589868 0.16057292 0.04534887 -0.14624569 0.102541946 0.027833864
0.041051142 -0.23448093 -0.13312067 0.2503737 -0.117121145 0.12866452 -0.25006127 -0.0014103688
-0.31164268 -0.044409737 -0.07715518 0.37206155 -0.11737784 -0.096964955 -0.12276757 -0.16529605
-0.116007425 -0.23175733 -0.13282198 0.04789381 0.49185425 0.037325043 0.17450708 0.21543735
0.02135933 -0.36783528 0.32658345 -0.25988176 -0.2851929 0.019206583 0.08583619 -0.048612088
-0.3460968 -0.07412367 -0.051953807 -0.11344683 -0.22786027 -0.3993651 -0.23343527 -0.034784026
-0.1720813 0.05462062 -0.23056726 -0.20901756 0.062920645 -0.07178408 -0.15705612 -0.10676443
0.2026874 -0.34077382 -0.0812807 -0.14041516 -0.14846073 -0.26373732 0.1719534 0.39933413
-0.16014014 0.035229135 -0.2524425 0.16129503 0.36070105 0.0737007 -0.36362028 -0.17711389
-0.22294144 0.013038193 -0.22573127 -0.24072044 0.07448804 -0.15838268 -0.22886322 -0.19138362
-0.099067084 -0.33028328 -0.18967313 0.021613397 0.04266849 -0.015974725 0.060658053 -0.22154878
0.4658469 0.19799638 0.29789132 0.05060429 0.2600521 0.018376296 -0.27380905 -0.36446872
0.23717704 0.07628683 0.05862016 -0.24874867 -0.01923406 -0.10218032 -0.14909498 0.28019187
-0.17384315 -0.13788183 -0.1611477 -0.019288061 -0.41420987 -0.053252194 -0.13900614 0.30064633
-0.26451203 0.06656678 -0.008569523 0.0410447 0.114540435 0.22081572 0.18161632 0.05080395
-0.27228424 -0.10356578 -0.2578439 0.08037266 -0.2581259 0.35159278 -0.2699699 -8.535433e-05
0.23219046 0.3450003 -0.24428488 -0.14210063 -0.35073066 0.039622918 0.12902477 -0.22013442
-0.16195817 -0.17309271 -0.070858486 0.35671103 -0.10395287 0.022746166 0.08827386 -0.086467505
-0.06183458 -0.26347476 -0.062647626 -0.08394364 0.009189594 -0.25653446 -0.2925504 -0.1383317
-0.027504824 0.08054451 0.0315494 0.19433081 -0.072372 -0.24101412 -0.03972268 -0.16459732
0.10682684 -0.12572624 -0.2864245 0.0009709068 0.2947656 0.1606406 0.32596064 -0.11446385
-0.37995315 0.18612966 -0.0924279 0.28031766 0.43314615 -0.105723314 -0.19676736 -0.16287445
-0.08065551 -0.20354699 -0.009758904 0.5873223 -0.14590135 0.059243944 -0.120785214 0.22367175
-0.102020614 -0.3234742 -0.10770933 -0.22883835 -0.0032183195 0.08687664 -0.19189323 -0.20478764
0.06557563 0.009133729 -0.07135146 -0.20664805 0.27919126 -0.11290037 -0.120732635 -0.11608123
-0.47828454 0.0039610905 -0.11517643 -0.027769292 -0.13232349 -0.37825644 -0.25031167 -0.16203393
-0.069027245 0.09275131 -0.27616152 0.12435907 -0.27766797 0.19628833 -0.031379014 0.23892793
-0.10915326 0.26818177 -0.14106293 0.108158305 0.36015117 -0.23590708 -0.12179752 -0.15477182
-0.25811744 0.059954744 -0.17953493 -0.054186054 0.15631144 -0.11381489 -0.12365814 0.17346834
0.04339767 0.35868037 -0.059657954 -0.19875292 -0.0846379 -0.3242625 0.013749909 -0.12607138
0.05425203 -0.14572126 0.25333825 -0.08735364 -0.11803475 -0.022610081 0.3876404 -0.05046273
00000000: feb9 25be cfda 63be ce2b 283d d3b7 413e
00000010: b851 11be 3f7b 20be ba28 7b3e 4bc0 82be
00000020: 0e85 50be 093d b5bd 2705 83be 3a6d 243e
00000030: bdbf 393d 6ec1 15be 8301 d23d d803 e43c
00000040: 3e25 283d c51b 70be c950 08be fb30 803e
00000050: 36dd efbd a2c0 033e 0808 80be 20dc b8ba
00000060: a18f 9fbe fce6 35bd 8903 9ebd da7e be3e
00000070: cb63 f0bd 9095 c6bd 906d fbbd 5e43 29be
00000080: 4d95 edbd cb51 6dbe 7c02 08be 4d2c 443d
00000090: 52d4 fb3e 25e2 183d fcb1 323e 9c9b 5c3e
000000a0: c3f9 ae3c e854 bcbe f235 a73e 390f 85be
000000b0: ce04 92be 2057 9d3c e2ca af3d 781d 47bd
000000c0: 9a33 b1be 27ce 97bd 84cd 54bd d056 e8bd
000000d0: 3454 69be 9579 ccbe a809 6fbe b279 0ebd
000000e0: 1536 30be dfb9 5f3d d319 6cbe b308 56be
000000f0: 8adc 803d 8803 93bd 52d3 20be 4fa7 dabd
00000100: 498d 4f3e e879 aebe 7f76 a6bd fec8 0fbe
00000110: 1706 18be 9408 87be 8d14 303e 8675 cc3e
00000120: c7fb 23be 6d4c 103d 2540 81be 862a 253e
00000130: cfad b83e 65f0 963d 702c babe 585d 35be
00000140: c34a 64be 259e 553c 1926 67be 6b7f 76be
00000150: 2f8d 983d 122f 22be 1f5b 6abe 11fa 43be
00000160: afe3 cabd e41a a9be ac39 42be 940e b13c
00000170: 28c5 2e3d 6ddd 82bc 9474 783d afdd 62be
00000180: 7c83 ee3e 90bf 4a3e 3685 983e 7246 4f3d
00000190: 8d25 853e e389 963c b330 8cbe a59b babe
000001a0: 8ade 723e 453c 9c3d b11b 703d f9b7 7ebe
000001b0: bf90 9dbc ea43 d1bd 5bac 18be 4f75 8f3e
000001c0: f003 32be e530 0dbe e703 25be ff01 9ebc
000001d0: 5113 d4be f91e 5abd a057 0ebe 51ee 993e
000001e0: 1f6e 87be 2a54 883d 2f67 0cbc 7d1e 283d
000001f0: 2d94 ea3d 841d 623e a1f9 393e cd17 503d
00000200: d768 8bbe 4c1a d4bd 1e04 84be 6c9a a43d
00000210: 1429 84be f803 b43e 7f39 8abe 4200 b3b8
00000220: 56c3 6d3e e1a3 b03e d125 7abe d482 11be
00000230: f892 b3be a44b 223d 121f 043e eb6a 61be
00000240: 5dd8 25be 373f 31be 411e 91bd d4a2 b63e
00000250: 3ee5 d4bd 2b56 ba3c edc8 b43d e015 b1bd
00000260: 4246 7dbd 2ae6 86be 664d 80bd a5ea abbd
00000270: f38f 163c 7c58 83be 2bc9 95be d3a6 0dbe
00000280: cc51 e1bc 85f4 a43d f239 013d a8fe 463e
00000290: c537 94bd 68cc 76be 40b4 22bd 338c 28be
000002a0: 08c8 da3d 61be 00be 3ba6 92be 7484 7e3a
000002b0: 84eb 963e f87e 243e 50e4 a63e 066c eabd
000002c0: 3889 c2be c698 3e3e d74a bdbd cc85 8f3e
000002d0: 55c5 dd3e 7785 d8bd 627d 49be 8fc8 26be
000002e0: b72e a5bd 9f6e 50be cfe3 1fbc c15a 163f
000002f0: 2a67 15be c7a9 723d 3d5e f7bd 350a 653e
00000300: 2ff0 d0bd 699e a5be b696 dcbd 9a54 6abe
00000310: 71ea 52bb 61ec b13d a97f 44be dab3 51be
00000320: 844c 863d a3a5 153c b720 92bd 8c9b 53be
00000330: 28f2 8e3e 4f38 e7bd ac42 f7bd ffbb edbd
00000340: b6e1 f4be 09cc 813b 9fe1 ebbd 6d7c e3bc
00000350: cf7f 07be d4aa c1be da28 80be 39ec 25be
00000360: 285e 8dbd 66f4 bd3d 0b65 8dbe f8af fe3d
00000370: 7f2a 8ebe cfff 483e 4887 00bd 86a9 743e
00000380: bf8b dfbd 1f4f 893e cd72 10be 1a82 dd3d
00000390: bc65 b83e a091 71be fa70 f9bd 817c 1ebe
000003a0: f827 84be 1b93 753d 01d8 37be 32f2 5dbd
000003b0: 1b10 203e c817 e9bd 7b40 fdbd afa1 313e
000003c0: c1c1 313d f4a4 b73e e65b 74bd e385 4bbe
000003d0: a356 adbd bc05 a6be 4c47 613c db18 01be
000003e0: 6037 5e3d f437 15be 8db5 813e 77e6 b2bd
000003f0: 34bc f1bd c738 b9bc cd78 c63e 02b2 4ebd

linear2.weight f4 [3, 256]
0.07919276 -0.22954512 0.09163717 -0.33283633 -0.3864264 -0.18321817 0.24805698 -0.049954303
-0.3771014 -0.20426294 -0.036664784 -0.30311394 -0.12420764 -0.4598129 -0.05821641 -0.22022793
-0.15492478 -0.08607659 -0.046998538 0.101287365 -0.47244936 0.027930226 -0.26777416 -0.05807194
-0.009053034 0.2766741 -0.049354166 0.22122774 -0.18225725 -0.32835966 0.23848271 -0.4171067
0.076250575 -0.42481107 0.31759858 0.20929895 0.3217364 -0.09391329 0.32321388 0.2703961
-0.011624361 -0.26225677 0.2708721 -0.33853695 0.044884488 -0.47291973 0.2289825 -0.534042
-0.0054331454 -0.26149312 0.21599288 -0.40407526 -0.37448543 0.049319185 -0.2674922 0.0068536825
0.44268388 0.5398652 -0.1784717 -0.18481626 -0.07136761 -0.007731016 -0.36688924 -0.18719655
0.383602 -0.14153647 -0.03610235 -0.40826535 -0.5053223 0.014097244 0.47586727 0.41180936
0.002548699 0.1588126 -0.18722284 0.057800718 0.11101566 -0.4209763 0.028991586 -0.35101196
-0.14825214 -0.28897265 0.009403927 0.01626499 0.021612694 -0.23833813 0.024225177 -0.2557912
-0.26575884 -0.28757384 -0.28744736 -0.16955633 -0.27984497 -0.073331006 0.1326134 -0.17468259
0.31502068 0.05120931 0.30996096 -0.11151975 0.28984362 -0.03343624 -0.033347107 -0.09573883
0.37660286 0.33779398 0.03886004 -0.25042406 -0.027925594 0.12577057 0.093798555 0.1312623
-0.07108906 -0.15917128 -0.07244292 -0.08164091 0.007674382 -0.049086507 -0.0736185 0.08482334
-0.56355286 -0.46556512 0.012415327 -0.3729026 0.06696383 0.3320119 0.2547555 0.039166532
-0.14542454 0.19621314 -0.098873936 0.21197267 -0.13881356 0.30457318 0.027332587 0.03854178
0.3394844 0.47434828 -0.24509963 0.0071235523 0.0084770275 -0.36151025 -0.50655836 -0.24111846
-0.20430079 -0.27292755 0.35154817 0.17543136 -0.063129455 -0.3180209 0.12442125 0.529705
-0.2752533 -0.13539538 -0.2919551 -0.20029406 0.42046332 0.34077877 -0.26919293 -0.20037632
0.2861561 0.006938498 -0.029382817 0.12706916 0.30554587 -0.5559424 0.236659 -0.15975583
-0.0034190367 -0.12201567 0.02073991 0.28870153 0.21791309 0.07266315 0.37432882 -0.1889695
-0.19999143 0.03456665 -0.39597943 0.40672892 0.2117273 -0.17958 -0.058758367 -0.013088712
0.016638266 -0.130188 0.26533937 0.24685152 0.014997191 0.0069438196 -0.43717417 0.22788766
0.3337174 -0.20122287 0.27518278 -0.13676792 0.13193384 0.014945016 -0.029759228 -0.25832248
0.03300642 0.11756707 -0.400516 -0.25742254 0.2043019 -0.22025749 -0.0011820346 -0.2654573
-0.2813312 0.024196943 0.30002236 -0.032185424 -0.5055838 -0.13106638 -0.14785095 -0.07823587
0.104945585 0.22782134 -0.011647684 0.01941546 -0.26612434 0.25370857 -0.051507328 0.30390617
-0.55083376 0.042888053 -0.15809396 0.2612527 0.21291403 0.049389753 -0.21634133 -0.38486445
0.12678394 -0.055481434 -0.12985636 -0.0703339 -0.12163999 -0.26521465 0.1443822 0.12110545
0.43710637 0.27822766 -0.37326458 0.041455857 -0.019349715 -0.13195589 0.04579948 -0.14303923
-0.024042757 -0.4160966 -0.015477973 -0.025012039 -0.38779783 0.032132264 0.28022757 -0.47413915
00000000: d02f a23d e00d 6bbe 45ac bb3d 8669 aabe
00000010: aed9 c5be 8b9d 3bbe a602 7e3e e29c 4cbd
00000020: 6f13 c1be 4e2a 51be d02d 16bd c031 9bbe
00000030: 9360 febd 996c ebbe 5574 6ebd 6e83 61be
00000040: 9aa4 1ebe ec48 b0bd 8a81 40bd c06f cf3d
00000050: e2e4 f1be eecd e43c b219 89be d8dc 6dbd
00000060: 2d53 14bc 3aa8 8d3e 9827 4abd 8689 623e
00000070: a5a1 3abe c21e a8be d034 743e 028f d5be
00000080: 4329 9c3d d680 d9be 489c a23e 7752 563e
00000090: a2ba a43e 9c55 c0bd 4a7c a53e 5c71 8a3e
000000a0: 1b74 3ebc 8546 86be bfaf 8a3e b754 adbe
000000b0: ccd8 373d 8922 f2be 637a 6a3e fab6 08bf
000000c0: 8708 b2bb 6de2 85be 3d2d 5d3e f4e2 cebe
000000d0: 8ebc bfbe ea02 4a3d bdf4 88be db94 e03b
000000e0: 76a7 e23e 9b34 0a3f 49c1 36be 7940 3dbe
000000f0: 2e29 92bd 7654 fdbb e8d8 bbbe 74b0 3fbe
00000100: 7b67 c43e f0ee 10be 0fe0 13bd 2808 d1be
00000110: cd5c 01bf 20f8 663c e0a4 f33e add8 d23e
00000120: 1308 273b c59f 223e 58b7 3fbe 72c0 6c3d
00000130: 2e5c e33d 358a d7be c37f ed3c d7b7 b3be
00000140: 69cf 17be 39f4 93be ee12 1a3c 283e 853c
00000150: 1b0d b13c e90e 74be e173 c63c 10f7 82be
00000160: 8b11 88be e13c 93be 4d2c 93be 2da0 2dbe
00000170: d747 8fbe 912e 96bd cfcb 073e fedf 32be
00000180: 644a a13e dac0 513d 34b3 9e3e 7764 e4bd
00000190: 6266 943e 70f4 08bd fa96 08bd b812 c4bd
000001a0: 17d2 c03e 55f3 ac3e b52b 1f3d 9537 80be
000001b0: 37c4 e4bc 00ca 003e 7519 c03d a069 063e
000001c0: 2497 91bd ccfd 22be f45c 94bd 5933 a7bd
000001d0: 6279 fb3b ef0e 49bd 4cc5 96bd dcb7 ad3d
000001e0: 0045 10bf 8d5e eebe a869 4b3c 17ed bebe
000001f0: 5524 893d 77fd a93e 506f 823e 166d 203d
00000200: 2cea 14be 19ec 483e 6b7e cabd 5d0f 593e
00000210: 2425 0ebe 04f1 9b3e 97e8 df3c fcdd 1d3d
00000220: e6d0 ad3e c7dd f23e 66fb 7abe b06c e93b
00000230: 3be3 0a3c df17 b9be cfad 01bf c2e7 76be
00000240: 3a34 51be 29bd 8bbe 1ffe b33e 47a4 333e
00000250: 044a 81bd a3d3 a2be 91d0 fe3d bf9a 073f
00000260: 00ee 8cbe 16a5 0abe 247b 95be e319 4dbe
00000270: f846 d73e 8e7a ae3e a8d3 89be 732f 4dbe
00000280: 0d83 923e 575c e33b 3cb4 f0bc 6b1e 023e
00000290: 8270 9c3e 3e52 0ebf bd56 723e 0897 23be
000002a0: eb11 60bb 5ae3 f9bd bee6 a93c b0d0 933e
000002b0: 9c24 5f3e 6bd0 943d 07a8 bf3e 3881 41be
000002c0: 8eca 4cbe c295 0d3d d1bd cabe c63e d03e
000002d0: 0bcf 583e d2e3 37be 9dac 70bd 0972 56bc
000002e0: f94c 883c 0150 05be 90da 873e a5c6 7c3e
000002f0: c7b6 753c fb88 e33b 4bd5 dfbe 625b 693e
00000300: 02dd aa3e 5e0d 4ebe c2e4 8c3e e40c 0cbe
00000310: aa19 073e f1db 743c a0c9 f3bc d842 84be
00000320: bd31 073d 01c7 f03d 6f10 cdbe e3cc 83be
00000330: 8434 513e 2e8b 61be 80ee 9aba 05ea 87be
00000340: a50a 90be ab38 c63c 889c 993e ddd4 03bd
00000350: f16d 01bf 4436 06be 3d66 17be 213a a0bd
00000360: b6ed d63d ff49 693e edd5 3ebc 2c0d 9f3c
00000370: 7341 88be 17e6 813e 59f9 52bd 9799 9b3e
00000380: 7103 0dbf 62ab 2f3d 62e3 21be eac2 853e
00000390: 2306 5a3e e94c 4a3d 9588 5dbe f40c c5be
000003a0: a6d3 013e 8040 63bd 11f9 04be 380b 90bd
000003b0: 631e f9bd 37ca 87be edd8 133e 2206 f83d
000003c0: 68cc df3e db73 8e3e 891c bfbe 9ecd 293d
000003d0: 4b83 9ebc 721f 07be 3c98 3b3d e078 12be
000003e0: 51f5 c4bc 9d0a d5be 5397 7dbc 0ce6 ccbc
000003f0: 708d c6be 1f9d 033d fd79 8f3e 5ec2 f2be

linear2.bias f4 [3]
0.15366302 -0.043994166 0.054004297
00000000: d759 1d3e 3a33 34bd 9c33 5d3d
